…
        (conv): Conv2d(2, 1, kernel_size=(7, 7), stride=(1, 1), padding=(3, 3), bias=False)
        (bn): BatchNorm2d(1, eps=1e-05, momentum=0.01, affine=True, track_running_stats=True)
      )
    )
  )
  (relu): ReLU()
  (fc1): Linear(in_features=197136, out_features=256, bias=True)
  (fc2): Linear(in_features=256, out_features=1, bias=True)
  (sig): Sigmoid()
  (criterion): BCELoss()
)


----------------------------------------------------------------
        Layer (type)               Output Shape         Param #
================================================================
            Conv2d-1         [-1, 16, 222, 222]             448
              ReLU-2         [-1, 16, 222, 222]               0
         MaxPool2d-3         [-1, 16, 111, 111]               0
         Dropout2d-4         [-1, 16, 111, 111]               0
           Flatten-5                   [-1, 16]               0
            Linear-6                    [-1, 1]              17
              ReLU-7                    [-1, 1]               0
            Linear-8                   [-1, 16]              32
           Flatten-9                   [-1, 16]               0
           Linear-10                    [-1, 1]              17
             ReLU-11                    [-1, 1]               0
           Linear-12                   [-1, 16]              32
      ChannelGate-13         [-1, 16, 111, 111]               0
      ChannelPool-14          [-1, 2, 111, 111]               0
           Conv2d-15          [-1, 1, 111, 111]              98
      BatchNorm2d-16          [-1, 1, 111, 111]               2
        BasicConv-17          [-1, 1, 111, 111]               0
      SpatialGate-18         [-1, 16, 111, 111]               0
             CBAM-19         [-1, 16, 111, 111]               0
           Linear-20                  [-1, 256]      50,467,072
             ReLU-21                  [-1, 256]               0
        Dropout2d-22                  [-1, 256]               0
...
Forward/backward pass size (MB): 20.03
Params size (MB): 192.52
Estimated Total Size (MB): 213.12